nexa_biomasse.onnx (onnx, 800656 bytes, 38 tensors)

blocks.0.0.se.conv_reduce.bias f4 [8]
000000 1f bc 84 3e 3f e7 de bf eb 80 ff bf 5f 91 0e c0
       0.25924775 -1.7414321 -1.9961218 -2.2276227
000010 b3 c0 46 be ed e8 aa bf 5a f9 ff be 8e 45 9c bf
       -0.19409446 -1.3352333 -0.49994928 -1.2208726

blocks.0.0.se.conv_expand.bias f4 [32]
000000 d5 0b 27 c0 25 84 d1 bf a7 31 11 c0 11 75 8e be
       -2.6100972 -1.6368452 -2.2686555 -0.2782369
000010 6a 81 c8 3d e7 2e cd 3d 92 10 b6 3e 8b 72 3a c0
       0.09790309 0.100187115 0.35559517 -2.9132411
000020 d4 18 0a c0 39 c9 59 bf 7d b0 09 c0 08 a8 32 be
       -2.1577654 -0.85072666 -2.151397 -0.17446911
000030 54 f2 f6 bf d8 c0 30 c0 71 d9 90 be 6b 59 ec bf
       -1.9292703 -2.7617702 -0.28290895 -1.8464788
000040 8b 11 d2 bf db a5 f6 bf 8f b0 20 c0 ca fe 02 c0
       -1.6411604 -1.9269365 -2.5107763 -2.046801
000050 25 5d fe bf 27 23 a1 bf 7e b0 14 3f a7 ca 02 c0
       -1.9872175 -1.2588853 0.58081806 -2.043619
000060 08 2f 46 c0 7c 71 3d bf b8 65 3e bf 9e 50 11 c0
       -3.0966206 -0.7400129 -0.7437396 -2.2705455
000070 c1 e5 9b bf 10 cc 3b c0 5b 30 13 c0 93 13 fb bd
       -1.217949 -2.93433 -2.2998264 -0.12259593

blocks.0.1.se.conv_reduce.weight f4 [4, 16, 1, 1]
000000 f4 40 86 bc bd f5 1f be 35 ea 97 3d 09 7e 82 bd
       -0.016388394 -0.15621085 0.07417718 -0.063716955
000010 96 46 e0 3d 33 4d c2 3d 16 a1 51 3b 8d 15 06 be
       0.10950963 0.09487381 0.0031986884 -0.13094158
000020 ff 75 13 be 1f fb 13 bd a2 22 3d 3e 50 ca bc be
       -0.1440048 -0.03612816 0.18470243 -0.36873102
000030 0d 50 ac 3d ae b8 9e 3d ea 60 a2 bd 5c a7 85 3e
       0.08413706 0.077500686 -0.07928641 0.26104248
000040 b2 cb 01 bd 17 52 87 3c 87 19 80 bc 35 cc 92 be
       -0.0316884 0.016518636 -0.015637172 -0.28671423
000050 df 83 4f 3e d5 f4 41 bf 5a 1f 60 bd 02 54 63 be
       0.20265149 -0.7576421 -0.0547174 -0.22200015
000060 98 d1 e4 bd 37 8a 48 3d d4 3d 24 3f 29 c5 13 bd
       -0.11172789 0.048959937 0.6415684 -0.0360767
000070 4a cf 70 3d 96 9a 63 3e c0 97 42 be f5 46 ae be
       0.058791436 0.22226939 -0.190032 -0.3403851
000080 bd ee e8 bb 98 87 29 be 63 fe c5 ba 9c 77 22 be
       -0.007108538 -0.16555631 -0.001510572 -0.1586594
000090 a2 fa 9d 3a f5 c4 a3 3d 15 90 dd bd 12 2c 02 be
       0.0012052844 0.07996551 -0.10818497 -0.12712124
0000a0 54 5f 4d be fc 76 52 be 0e 5b 01 3e b4 dd dd be
       -0.20055896 -0.20553201 0.12632391 -0.4333321
0000b0 d1 16 89 3c 58 da db 3c e3 7a 8f bd e5 e4 b3 3d
       0.016734513 0.026837513 -0.07005861 0.087838925
0000c0 38 16 1b ba 0f 3c 19 be 45 a9 75 bd 73 74 61 be
       -0.00059160916 -0.14964317 -0.05997588 -0.22017078
0000d0 49 0d c3 bd 54 56 62 3d 30 6d 34 be 51 24 d9 bd
       -0.09524018 0.05525811 -0.17619777 -0.1060263
0000e0 18 e3 65 be 95 de a3 be 17 21 3c 3c 2a a8 e6 be
       -0.2244991 -0.32005754 0.011482499 -0.45050174
0000f0 c9 f5 31 bd 7b ab 96 bc f2 f0 6f bd 2d e2 b2 bd
       -0.04344729 -0.018392315 -0.058579393 -0.08734546

blocks.0.1.se.conv_reduce.bias f4 [4]
000000 0a df a0 bf 83 04 ab 40 82 c8 c2 3f b0 73 5d 40
       -1.2568066 5.3443007 1.521744 3.460186

blocks.0.1.se.conv_expand.weight f4 [16, 4, 1, 1]
000000 31 a3 b8 bc dd dd 98 3c 52 2d c2 bc 87 cb d9 bc
       -0.022538753 0.01866048 -0.023703251 -0.026586307
000010 eb 0a ce 3e a6 c4 63 bc 74 ba 0d 3f 18 6a 28 3f
       0.40242705 -0.013901865 0.5536263 0.65786886
000020 e7 ba 94 3c b6 b3 ec 3e 4c be 63 bc 45 d8 ee bc
       0.018155528 0.4623086 -0.013900351 -0.02915586
000030 9f 84 3d bd 39 8a a0 3e 55 54 3e bc bb 5c c7 3c
       -0.046269055 0.31355456 -0.011616786 0.02433621
000040 08 00 5d 3d 2b aa 9e 3e 01 ff 78 3d 12 47 57 3d
       0.053955108 0.30989203 0.060790066 0.052558012
000050 4d 2d 3a be d9 67 d6 3e b2 95 d4 bd e6 0b 00 bc
       -0.18181343 0.41876104 -0.103801146 -0.007815337
000060 d0 22 df bc 89 8d d3 3e fa 41 3a bd 42 62 70 bd
       -0.02723828 0.4131892 -0.045473076 -0.058687456
000070 f2 a2 ba bc 7f 4b 18 3e 27 e3 73 3d c0 f3 dd 3d
       -0.022782777 0.1487255 0.0595428 0.10837507
000080 fe 4d 41 3e 49 b1 c4 3e 3e 15 e0 3d 11 93 ea 3c
       0.18877408 0.38416508 0.109415516 0.02863458
000090 51 8e eb bd 8c bd 11 3e 57 e1 b2 bd 5a fb 63 bd
       -0.11501754 0.14232463 -0.087343864 -0.05565963
0000a0 f7 42 de 3c 30 ed 85 3e 14 9c fb bb 0e 6b 35 bd
       0.02713154 0.26157522 -0.007678518 -0.04429155
0000b0 40 fe 19 3f fb 25 0a bd d5 da 15 3f 7f 2b fe 3e
       0.6015358 -0.033727627 0.58537036 0.4964256
0000c0 4f cd 4d be a1 49 86 3e 4b 30 dc bd f8 09 86 bc
       -0.2009785 0.2622805 -0.10751399 -0.016362175
0000d0 3b b5 bc b6 68 c7 8f 3d 7c 81 04 3c 4c d9 39 3c
       -5.6239346e-06 0.070204556 0.008087512 0.0113433115
0000e0 36 98 6b 3d 9b 8c b9 3e 13 3f 0b 3d 6c e6 fe 3b
       0.057518207 0.36240086 0.0339957 0.0077789333
0000f0 d3 c9 5d 3e 1a 48 18 3f 5b d9 ac 3c f1 bc 2d be
       0.21659021 0.5948502 0.021099737 -0.16966607

blocks.0.1.se.conv_expand.bias f4 [16]
000000 02 75 e3 be 3e 46 aa 3f 26 72 00 3f 85 a8 e0 3c
       -0.44425207 1.3302686 0.50174177 0.027424106
000010 fd bc 54 3f 08 87 f3 bf 5f 6a c3 3f 51 27 7b 3d
       0.83100873 -1.9025583 1.5266837 0.061316792
000020 12 bb 1b bf 5c 1c 07 40 18 52 87 3e c6 b1 89 3f
       -0.6083232 2.111106 0.2642982 1.0757377
000030 57 7b 6f 3f f3 aa 30 40 e1 70 33 3e 36 55 86 bf
       0.93547577 2.760434 0.17523529 -1.0494754

blocks.1.0.se.conv_reduce.bias f4 [4]
000000 85 6c 32 3f b0 5f 05 bf df 26 d9 be ff 30 bc 3e
       0.6969684 -0.5209913 -0.4241247 0.3675613

blocks.1.1.se.conv_reduce.bias f4 [6]
000000 88 44 13 40 d6 5a 5e 3f db ba 08 40 d0 8d b6 3f
       2.3010578 0.86857355 2.1364048 1.4262028
000010 32 e3 05 40 16 bc 1f 3f
       2.091992 0.6239637

blocks.1.2.se.conv_reduce.bias f4 [6]
000000 56 55 9e 3f 1a ad 00 40 5d 68 0e 3f ff 9c a2 3d
       1.2369792 2.0105653 0.55627996 0.07940101
000010 97 ff 8c 3f e0 cf 90 3f
       1.10155 1.1313438

blocks.2.0.se.conv_reduce.bias f4 [6]
000000 7b 0b 46 bf 1f b1 d4 bd c5 c9 b7 be 23 f4 2f bf
       -0.7736127 -0.10385346 -0.35896125 -0.687319
000010 76 89 be be 18 dd eb bd
       -0.3721425 -0.1151678

blocks.2.1.se.conv_reduce.bias f4 [12]
000000 d0 7e 99 3f 9a 13 72 3f a0 5f 0f 3f d8 b4 b1 3f
       1.1991825 0.9456116 0.5600529 1.3883314
000010 2d 31 9b 3f e4 e2 d5 3f 93 0d 88 3f 43 01 4d 3f
       1.2124382 1.6709867 1.0629143 0.8008005
000020 24 e7 6d 3f 5e 09 c4 bd db b4 3d bf 75 b3 82 3f
       0.9293082 -0.09572099 -0.7410409 1.0211016

blocks.2.2.se.conv_reduce.bias f4 [12]
000000 9f 32 2d 3f 53 45 65 3f dc a1 1f 3f 19 06 87 3e
       0.67655367 0.89558905 0.6235635 0.2637184
000010 97 ac 6d 3f 14 7b 24 3f 72 5f 7f 3f 0f 74 94 3f
       0.92841476 0.642503 0.99755013 1.1597918
000020 69 ad b3 3f d9 30 92 3f 5b 0e f0 3e 12 a4 b2 be
       1.4037296 1.1421157 0.46885952 -0.348908

blocks.3.0.se.conv_reduce.bias f4 [12]
000000 08 aa 2a bf 9f 26 12 be f8 69 83 be 26 f2 27 3f
       -0.666657 -0.14272545 -0.25666785 0.65603864
000010 ab 6d 1f 3d 4f 73 0b be 89 db 84 be 48 02 e5 bd
       0.038922947 -0.13618205 -0.25948742 -0.11182076
000020 72 81 0a be 70 cb a0 3e f1 e0 4a be 79 12 43 be
       -0.13525942 0.3140521 -0.19812371 -0.19050016

blocks.3.1.se.conv_reduce.bias f4 [22]
000000 44 77 69 3f 07 31 64 3f 97 99 45 3f 6b 36 55 3f
       0.9119761 0.8913731 0.77187485 0.8328616
000010 95 18 fb 3e 87 d0 84 3f 56 4b 6a 3f f8 dc 85 3f
       0.49042192 1.0376137 0.91521204 1.0458059
000020 87 71 3a 3f 61 17 3e 3f bc 90 ad 3e 4d 53 78 3f
       0.7282948 0.74254423 0.33899486 0.97002107
000030 e5 74 00 3f cb 87 8f 3f 3c e1 f0 3e aa 0c 8d 3f
       0.50178367 1.1213316 0.4704684 1.101949
000040 15 77 a2 3f 13 de a7 3f b4 fd 2d 3f 87 28 a1 3f
       1.2692591 1.3114647 0.67965245 1.2590493
000050 31 37 82 3f bd 45 93 3f
       1.0173093 1.1505657

blocks.3.2.se.conv_reduce.bias f4 [22]
000000 12 3f 81 3a f9 29 8b 3e 2a 25 55 3f 55 67 58 3f
       0.0009860715 0.2718046 0.8325983 0.8453267
000010 f9 6f b5 3f 7d 54 51 3f 1b 50 47 3f 59 14 64 3f
       1.4174796 0.81769544 0.77856606 0.8909355
000020 e4 8b f9 3d 38 42 35 3e 47 61 6f 3f 57 c1 01 3f
       0.12184885 0.17701042 0.9350781 0.5068564
000030 73 73 e1 3e b9 57 28 3f af 92 97 3f 3e 93 87 bd
       0.44033393 0.65758854 1.1841639 -0.06619881
000040 98 ef a3 3f e8 06 a6 3f 3f a3 7c 3e b6 5b 02 3f
       1.2807493 1.2970858 0.24671648 0.5092119
000050 68 79 82 3f 97 6c fd 3e
       1.01933 0.4949691

blocks.3.3.se.conv_reduce.bias f4 [22]
000000 ea 5f 4a 3f 9f c0 a1 3f 5a f5 88 3f f3 f7 a0 3f
       0.79052603 1.2636908 1.0699875 1.2575668
000010 45 f7 1d 3f c4 c2 79 3f 0b aa 02 3f b2 1a a7 3f
       0.6170543 0.97562814 0.51040715 1.3055022
000020 0e 09 00 3f 7d 09 61 3f b7 f6 0e 3f 0c 6e 5d 3f
       0.50013816 0.879051 0.55845207 0.86496043
000030 a3 75 9b 3e 56 7c 92 3f 43 c8 d6 3e f3 60 16 3f
       0.30363187 1.1444194 0.41949663 0.5874168
000040 fc da 6c 3f fd 50 33 3f 05 b0 3e 3f 12 fa 28 bd
       0.92521644 0.70045453 0.74487334 -0.04125411
000050 78 b8 a1 3e 4e 1c a3 3f
       0.3158605 1.2743013

blocks.4.0.se.conv_reduce.bias f4 [22]
000000 c3 c3 90 3f ee 6e 45 3f 5f 1a 74 3f d8 13 95 3f
       1.1309742 0.7712239 0.9535274 1.1646681
000010 e8 67 54 3f b8 b7 92 3e b6 50 ba be ef ca bd bf
       0.8297105 0.2865579 -0.36389703 -1.4827555
000020 33 a8 34 3f 1e 42 d0 3e a9 a3 15 3f 0b f9 0e be
       0.7056915 0.40675443 0.5845285 -0.1396219
000030 04 e3 e2 3e 61 d7 21 be 20 9e 32 3e 7a d2 54 3f
       0.44313824 -0.15804817 0.17443132 0.8313366
000040 4c 3e 7c 3f e2 30 38 3d 22 36 00 3f df bd 05 3f
       0.9853256 0.044968493 0.500826 0.52242845
000050 ff c6 bd 3f f7 ab cf 3f
       1.4826354 1.6224355

blocks.4.1.se.conv_reduce.bias f4 [30]
000000 83 84 9b 3f d2 bc 30 3f 64 cd 72 3f b8 f2 15 3f
       1.2149814 0.69038117 0.9484465 0.58573484
000010 55 b5 7a 3f cc 3b a0 3f 17 48 26 3f 81 36 93 3f
       0.9793294 1.2518249 0.6495375 1.1501008
000020 98 b4 ee 3f 3a 52 aa 3f 28 1f 52 3f 1f af ac 3f
       1.8648863 1.3306344 0.8207879 1.3490943
000030 1e 13 fa 3f c8 e1 77 3f 82 0a af 3f 7c 0e 95 3f
       1.9537084 0.9682889 1.3675082 1.1645045
000040 9a b5 98 3f 66 14 1b 3f c5 b0 14 3f aa e4 92 3f
       1.193042 0.60578 0.5808223 1.1476033
000050 0b 86 72 3f ca 78 07 3f 59 9b 96 3f b3 87 7e 3f
       0.94735783 0.52918684 1.1766158 0.9942581
000060 f1 f4 4d 3e 1d d0 74 3f 2a 93 13 3f a4 99 17 3f
       0.20112969 0.95630056 0.5764643 0.5921881
000070 ab 6f 19 3f 54 dc 46 3f
       0.59936017 0.77679944

blocks.4.2.se.conv_reduce.bias f4 [30]
000000 c2 b4 62 3f 8d b1 7d 3f 9e cb 38 3f 12 52 33 3f
       0.88557065 0.99099046 0.72185695 0.70047104
000010 1c b5 55 3f c3 db 59 3f 7b 43 75 3f be 17 2d 3f
       0.83479476 0.85100955 0.9580609 0.6761435
000020 95 68 83 3f 21 3f 2b 3e a2 b7 8b 3e e9 14 df 3e
       1.0266291 0.167233 0.27288538 0.4357064
000030 cd dd fb 3e 0d 37 22 3f 2e 0a 00 3f df e4 64 3e
       0.49192658 0.6336525 0.5001553 0.22352932
000040 2b 41 0a 3f ba 70 0d 3f f3 7a 1a 3f f7 02 e3 3e
       0.5400569 0.5525013 0.60343856 0.443382
000050 ea 31 7f 3f 25 ee 8c 3f 96 4f 6b 3f 6a d4 06 3f
       0.9968554 1.1010176 0.91918314 0.5266787
000060 d9 eb 0d 3f 69 36 c1 3e d8 85 92 3e 20 21 8c 3f
       0.55438 0.37736824 0.2861774 1.0947609
000070 ea 82 98 3e 90 3b 30 3f
       0.2978738 0.68840885

blocks.4.3.se.conv_reduce.bias f4 [30]
000000 68 b9 37 3f f7 4a d0 3e 47 2b 14 3f a4 e0 3e 3f
       0.7176728 0.40682194 0.57878536 0.74561524
000010 a4 68 15 3f 6b c6 29 3f e0 29 ca 3e 32 8f 90 3f
       0.58362794 0.66318387 0.39485073 1.12937
000020 1f 4a 9e 3f bc 30 71 3f a8 20 67 3e 87 da 53 3f
       1.236637 0.9421499 0.22571051 0.8275532
000030 bf a5 99 3e 96 78 86 3f 63 24 44 3f af c0 2f 3f
       0.30009267 1.050555 0.7661802 0.68653387
000040 a7 2f 70 3f 0c 84 4a bd a3 b1 b1 3e 4c 31 17 3f
       0.9382271 -0.049442336 0.3470584 0.59059596
000050 a8 30 93 3f 70 46 56 3f 23 76 46 3f 6e 7e 5c 3f
       1.1499224 0.8370123 0.7752401 0.86130416
000060 f1 e8 a7 3f a1 ac 4d 3f fc 1e 06 3f 33 0e 68 3f
       1.3117963 0.80341536 0.5239103 0.90646666
000070 53 4e 3b 3f 9a eb c5 3d
       0.7316639 0.09664078

blocks.5.0.se.conv_reduce.bias f4 [30]
000000 de c1 ad bc d8 94 4d bf 26 0b d0 bf a5 4f 8c bf
       -0.021210607 -0.8030524 -1.6253402 -1.0961806
000010 b7 94 80 3f 4a 58 77 3f 53 5a a6 3e 17 ad a0 3d
       1.0045384 0.96619093 0.32490787 0.07845514
000020 50 8d cd 3f 42 ce a1 3e 7e f4 3b 3f a3 99 b3 bd
       1.605875 0.31602675 0.7341994 -0.08769538
000030 3b 01 98 3f 7c 2d f0 3f 45 ec 1d be e3 0b 29 be
       1.1875376 1.8763881 -0.15422161 -0.1650844
000040 9b 2f e0 bc 7c da 36 3f fd 43 e8 3e 48 81 8c 3e
       -0.02736645 0.7142713 0.4536437 0.27442384
000050 dc 5c 65 bf f7 fa df 3e e1 7a 9b 3f 52 0c 0f 40
       -0.8959482 0.43746158 1.2146875 2.235127
000060 59 37 35 bf cb e7 70 3d fe 1a ba 3f c3 43 b2 be
       -0.7078758 0.058814805 1.4539487 -0.34817323
000070 5d c4 2a 3f d8 59 9d bd
       0.66705877 -0.07683152

blocks.5.1.se.conv_reduce.bias f4 [52]
000000 46 d7 a5 3e 6d c8 b7 3e 7c e1 36 3f fc 29 2b 3e
       0.32390803 0.358951 0.7143781 0.16715235
000010 92 99 e9 3e e9 1b 35 3e 46 0a ef 3e 79 82 24 3d
       0.45624977 0.17686428 0.46687526 0.04016349
000020 11 d7 08 3f 10 80 ec 3e 40 5d 82 3e 44 a8 61 bd
       0.53453165 0.46191454 0.2546177 -0.05509211
000030 f5 34 fa be 76 de 3b 3f fb 80 c3 3e 37 02 d6 3e
       -0.48868528 0.73386323 0.38184342 0.41798565
000040 41 da a8 bc 55 8d 75 3f 0f 02 89 bd de bc 2a bd
       -0.020611884 0.9591878 -0.06689846 -0.041684024
000050 26 ae 21 3e b0 3d 54 3f c1 81 38 3e 20 db 44 bd
       0.15789089 0.8290663 0.18018247 -0.048060536
000060 5e e5 a0 3e fb 30 5f 3e 0d 5e b0 3e 65 ca 3a 3f
       0.31424993 0.21796028 0.34446755 0.7296508
000070 51 66 af 3d 7f 76 5c 3e 7c f2 7d be ab 20 d7 3e
       0.08564437 0.21529578 -0.24799532 0.4201711
000080 bf 3e 14 3d 2c 6d 90 3e 5c 90 ae 3e c7 cd 5a 3e
       0.03619265 0.28208292 0.34094512 0.2136756
000090 19 5f 20 3f e2 fb 87 3e e0 a9 d0 3e 6b ef cb bd
       0.6264511 0.2655936 0.40754604 -0.09957775
0000a0 dc c5 bb bc dc 12 7a ba 05 8d 3e 3f 73 e1 5d 3e
       -0.022921495 -0.00095395534 0.7443393 0.21668033
0000b0 a5 6a 6b 3f bb 5b b7 bd 51 3d a9 3e b6 df 23 3f
       0.919596 -0.08953043 0.33054593 0.6401323
0000c0 79 b0 47 3e 9f 96 34 3e cc 71 28 3e 23 15 73 3d
       0.19500913 0.17635582 0.1644966 0.05934633

blocks.5.2.se.conv_reduce.bias f4 [52]
000000 8a e8 85 3e 7f 4e 96 3e bb 76 57 3f 5f c6 13 be
       0.26153976 0.29356763 0.84165543 -0.14431141
000010 77 82 d8 3e f2 cc 37 3f 88 fb e9 3e 4f bb cd 3e
       0.42287037 0.71797097 0.45699716 0.40181968
000020 31 b9 21 3f 1f 5f 99 3e 4d e9 57 3d 05 49 1e 3f
       0.63173205 0.29955384 0.052712727 0.6183017
000030 99 ac 5e 3f fe af 03 3f f1 35 95 3f 01 4f bf 3e
       0.86982113 0.5144042 1.1657087 0.37364963
000040 e4 76 f7 3e 98 ba a8 3f 6f 78 75 3f 46 b3 2d 3f
       0.48332894 1.3181944 0.9588689 0.67851675
000050 68 e6 77 3e 5d 40 4b be 4c 27 fb bc 20 e3 96 3c
       0.24208987 -0.19848771 -0.030658387 0.018418849
000060 4b 90 7a 3e ad a1 f5 3e 01 1d 8b 3e 4a 84 8b 3d
       0.24469106 0.4797491 0.27170566 0.068123415
000070 e8 2a e6 be bd 47 16 3f fa bd a0 3e 66 9b 86 3e
       -0.4495461 0.58703214 0.3139494 0.26290435
000080 a7 96 48 3f b0 78 1d 3f de 05 f3 3c 2c 55 65 bd
       0.7835488 0.6151228 0.029665884 -0.05598943
000090 2e 3e d0 bb 69 f4 c7 3e d0 b3 10 3f bd 90 1a 3f
       -0.0063550686 0.39053658 0.5652437 0.60377103
0000a0 7b 55 db 3d 6f c8 48 3e 47 c6 07 3f 12 04 b4 3e
       0.107096635 0.1960771 0.5303692 0.35159355
0000b0 fb 18 fa 3d 74 e9 84 3e d7 5c f4 3e 92 92 a1 3d
       0.12211796 0.2595936 0.4772708 0.07889284
0000c0 6e 35 3f 3f 76 eb a4 3e e1 c3 5a 3f 07 69 a8 3e
       0.746909 0.32210892 0.8545514 0.3289263

blocks.5.3.se.conv_reduce.bias f4 [52]
000000 7e 28 32 3f 5a 8e 82 3d e1 0b fb 3e 96 ce b3 3e
       0.69593036 0.06374808 0.490325 0.3511855
000010 27 26 6b 3e c7 a5 89 bd 8c ee 1c 3e bc e7 d3 3e
       0.22963773 -0.06721073 0.15325373 0.41387737
000020 9b d1 3b 3e 60 f1 d1 3e 34 85 ed 3e 83 c4 83 3e
       0.18341677 0.41004467 0.46390688 0.25735864
000030 1e 78 51 3d 25 2c ce 3e 30 05 a0 3e c9 07 88 be
       0.051139943 0.40268055 0.31253958 -0.2656844
000040 30 af 1b 3c 71 0a b2 3e 8d e9 c3 3e d7 a4 f9 3e
       0.009502217 0.3477359 0.38264123 0.48758575
000050 03 d5 f6 3e 6e 13 5d 3f f1 26 46 3e 96 63 d4 3e
       0.4820939 0.8635777 0.19350792 0.41482228
000060 43 85 5b 3d 73 b8 22 3f 24 55 4c 3f 00 80 9e 3f
       0.053593885 0.635627 0.79817414 1.2382812
000070 ab a9 3b 3e 82 48 ef 3e 36 c7 7c 3e bb 65 16 3e
       0.18326442 0.46735007 0.24685368 0.14687245
000080 53 40 69 3f b9 5f d0 3e bd 80 62 3f 24 c1 59 3e
       0.91113776 0.4069803 0.8847769 0.21265084
000090 2c 4a 18 3f 4d 3f 54 bc 95 9d 99 3e 12 9a c7 3e
       0.5948818 -0.012954545 0.30003038 0.38984734
0000a0 af a4 91 3e d1 60 0c 3f 9c 2c 96 3f d5 d6 6f 3f
       0.28445956 0.5483523 1.1732364 0.9368718
0000b0 af a8 a8 3e 79 7e e1 3e 50 fe e9 3e db 6a 0b be
       0.32941195 0.44041803 0.45701838 -0.13614981
0000c0 b2 7b 74 3e 99 1d 66 3f dc a6 47 3f ac 50 e8 3e
       0.23875311 0.8988891 0.7798898 0.45374048

blocks.5.4.se.conv_reduce.bias f4 [52]
000000 f3 f1 d3 3f 84 b8 64 3f 5f 8f 42 3f b8 8b 09 3f
       1.6558212 0.8934405 0.76000017 0.5372882
000010 d1 f5 e0 bd 24 4f 2d 3f 49 31 f9 3e 81 0c 98 3d
       -0.10984386 0.67698884 0.48670414 0.0742426
000020 be be 00 3f 8c da c6 3d 4f df 4a 3f d1 be a1 3c
       0.5029105 0.09709653 0.7924699 0.019744309
000030 d9 3c c1 3e 33 c2 e7 3d 60 b7 ca 3f c4 e6 48 3f
       0.37741736 0.113163374 1.5837212 0.7847712
000040 1e 70 ad 3d ff f8 6e 3c e2 75 e5 3e 5d 4d fb bd
       0.0846865 0.0145857325 0.448165 -0.12270615
000050 06 60 9c 3e 9d 7c a4 3e 86 18 e5 3e 64 79 22 3f
       0.3054201 0.32126322 0.44745272 0.6346648
000060 37 79 57 3d 57 42 3f 3f 5c f3 3c 3f f9 60 ad 3f
       0.052605834 0.747106 0.73808837 1.3545219
000070 f4 59 45 3f 95 80 e6 be b9 86 8b bb fb 64 31 3f
       0.7709038 -0.45019975 -0.0042580036 0.6929471
000080 c6 19 29 3f 8b e7 16 3f da e8 2d 3e 5c 51 eb 3e
       0.6605495 0.58947057 0.16983357 0.4596051
000090 2b 3a 79 be 70 b8 91 bd 0f 22 6a 3d 35 60 fd 3e
       -0.24338596 -0.07115257 0.057161387 0.49487463
0000a0 da 63 fa 3e 0b 8a f4 3d 29 24 65 3e 8e 31 03 3f
       0.48904306 0.11940392 0.22377075 0.5124749
0000b0 55 be e6 3d 80 5a ea 3e 07 a0 d6 3e 69 a9 e7 3e
       0.11266772 0.4577217 0.41918966 0.45246437
0000c0 03 c2 bc 3e ee e7 cf 3e a5 bc 57 3f a2 af e5 3e
       0.3686677 0.40606636 0.84272224 0.4486056

blocks.6.0.se.conv_reduce.bias f4 [52]
000000 61 2c 04 bf ef 58 c4 bf e0 3c 5d bf c4 97 77 bf
       -0.51630217 -1.533964 -0.8642101 -0.9671595
000010 14 be db bf b1 30 20 bf 63 20 cc be 7f 40 bd be
       -1.7167382 -0.625743 -0.3986846 -0.3696327
000020 0b 9f 99 bf ce cb 9d bf e5 2d 0c be cb 5e 7f be
       -1.2001661 -1.2327821 -0.13689382 -0.24938504
000030 98 67 43 bf dd d4 7d 3c f7 1f bd bf 1f 7e a2 bf
       -0.76329947 0.015492645 -1.477538 -1.2694739
000040 fd a9 a3 bf ce 7e 25 bf f5 62 80 bf 89 b2 cf bf
       -1.2786251 -0.64646614 -1.0030199 -1.622636
000050 25 27 1f bf 24 49 32 3f a5 ba 69 bf 99 b1 ee be
       -0.62169105 0.69642854 -0.9130042 -0.4661987
000060 ce 8b a2 be 5b d3 3b bf 7b 28 78 bf b6 03 d1 3d
       -0.31747288 -0.7336938 -0.9693677 0.10205786
000070 08 52 85 3e a9 52 e9 bd ad 57 0b bf 94 12 dc be
       0.26039147 -0.11392719 -0.5443066 -0.42982924
000080 20 1e 7f bf af bd 65 bf ab 8d a9 bf e0 03 cd bf
       -0.9965534 -0.8974256 -1.3246359 -1.6016808
000090 46 7b 39 bf 9a 43 35 bf 02 cc a1 bf 98 27 9e bf
       -0.72453725 -0.70806277 -1.2640383 -1.2355833
0000a0 6a a7 54 bd d4 82 1b bf b5 23 fc be ea 1d db be
       -0.05191747 -0.607465 -0.49245992 -0.4279626
0000b0 a7 22 fb bf 71 ef e9 be 2b ba fc be a3 a8 c3 bf
       -1.961995 -0.45690492 -0.49360785 -1.5285839
0000c0 d7 f8 37 40 6a 99 f9 bf fc d3 10 bf b2 10 82 bf
       2.874563 -1.9499943 -0.5657346 -1.0161345

classifier.bias f4 [3]
000000 83 b6 95 3c 6b 29 33 3c 12 f1 3b 3c
       0.018275505 0.010935168 0.01147105

conv_stem.weight_bias f4 [32]
000000 99 4f 8d 40 41 44 eb 3f 77 2e 0b 41 f8 24 ca 3e
       4.4159665 1.8380204 8.698844 0.3948133
000010 fb 36 e6 40 f2 c9 57 bf a3 3b f2 3f 43 61 2f 40
       7.1942115 -0.8429252 1.892445 2.7403114
000020 5c 48 fc 3f 7d 9e 6d c0 cc c8 2b 41 77 ef 7b c0
       1.9709582 -3.7127984 10.736523 -3.9364908
000030 80 60 52 bd 95 37 2f 40 82 4c fe c0 8f 20 0e 40
       -0.05136156 2.7377675 -7.9468393 2.2207372
000040 56 0a 23 3f 84 8b 21 c0 ca 80 c2 3e c8 ed da 40
       0.63687646 -2.5241404 0.37988883 6.841526
000050 b6 e7 92 40 3d 31 f9 3f 78 b7 f8 3f 6a 7c f6 c0
       4.590785 1.9468151 1.943099 -7.7026873
000060 15 58 6c c0 6a 52 ed 3f e0 99 15 c0 25 7e 08 41
       -3.692876 1.8540776 -2.3375168 8.530797
000070 ed 98 ff 3f c8 c6 37 bc 0a b6 86 c0 72 7c 25 3f
       1.9968544 -0.011216827 -4.2097216 0.64643013

blocks.0.0.conv_dw.weight_bias f4 [32]
000000 28 2b 00 3f ec a1 74 40 d2 01 f5 3f d2 39 86 40
       0.5006585 3.822383 1.914118 4.194558
000010 3e ff f3 40 50 a4 b1 3f a8 0b 8b 40 80 45 48 3d
       7.6249075 1.3878269 4.345173 0.048894405
000020 0e 8a 9f 40 d4 89 9a 3d 7a c7 13 40 c8 ad 90 bc
       4.9856024 0.0754582 2.30905 -0.01766099
000030 ba 62 32 40 24 49 24 3f f8 4f 96 bf 90 17 67 3e
       2.7872758 0.64174104 -1.1743155 0.22567582
000040 39 58 fd 40 90 e6 23 c0 f1 36 4e 3f d2 6d 12 c0
       7.9170194 -2.5609474 0.80552584 -2.287953
000050 43 29 1e 40 0f b7 18 40 a9 60 17 40 3a 47 11 c0
       2.4712684 2.386173 2.3652747 -2.2699723
000060 f4 59 fd 3e fe 00 4d 40 26 9f 5e c0 0e 72 00 40
       0.4948269 3.2031856 -3.4784636 2.0069613
000070 50 05 55 40 3f 10 ed 3f a3 d1 45 3f 33 77 7d 40
       3.3284492 1.8520583 0.77273005 3.9604003

blocks.0.0.conv_pw.weight_bias f4 [16]
000000 53 f2 98 3f 72 f9 9a c1 f1 cb 84 41 4d 8b 36 c0
       1.1948951 -19.3718 16.59958 -2.8522522
000010 6b d5 c2 c0 c0 b4 a4 c0 d4 7e 9f 3e 00 aa 47 bf
       -6.088552 -5.147064 0.3115145 -0.77993774
000020 e8 b4 a5 bf 59 b7 26 41 3a 7f 90 c1 f5 2f 72 c1
       -1.2945833 10.419763 -18.062122 -15.136708
000030 00 cd 2a c1 b4 fc a9 c1 0c 79 a8 c1 0b 92 4d 40
       -10.675049 -21.24839 -21.059105 3.2120388

blocks.0.1.conv_dw.weight_bias f4 [16]
000000 a2 f2 a2 bf 3c d5 a5 40 8d 27 25 40 58 20 ee 3f
       -1.2730296 5.1822796 2.580539 1.860362
000010 05 c2 2c 40 18 15 9b 3f ec a7 22 40 ce 93 3c 40
       2.699342 1.2115812 2.5414991 2.9465213
000020 2b 94 0f 40 cb fc 17 40 66 75 9e bf 61 6f 8a 40
       2.2434185 2.3748043 -1.2379577 4.326096
000030 bd f2 27 40 82 43 40 40 4f 71 1b c0 f2 c9 c1 3f
       2.6241906 3.0041203 -2.4287908 1.5139754

blocks.0.1.conv_pw.weight_bias f4 [16]
000000 e0 f3 3b bf 7f e8 46 c1 db c6 e8 40 94 75 dd c0
       -0.73419 -12.431762 7.2742743 -6.920603
000010 d4 c7 b8 40 97 3f 50 40 57 aa 40 c0 b8 9f a3 3e
       5.774393 3.2538812 -3.0103967 0.31957793
000020 84 13 90 3f dc 03 00 40 fd f8 81 3f 82 9b 1c c1
       1.1255956 2.0002356 1.015411 -9.787966
000030 96 16 ee c0 de 3b e6 c0 c1 f5 57 c0 c1 c9 bd c0
       -7.440257 -7.194808 -3.3743746 -5.930878

blocks.1.0.conv_pwl.weight_bias f4 [24]
000000 70 f8 a7 3f 45 68 17 c1 df 0a 96 c0 8a c8 94 3e
       1.3122692 -9.462956 -4.688827 0.2905925
000010 1d 8b 87 c0 b3 9a 65 3f 0e e0 ae 41 84 e0 9d 41
       -4.2357316 0.8968918 21.859402 19.734627
000020 66 c1 a0 40 43 e2 30 41 53 72 82 3e 6c 29 9a c1
       5.023608 11.05524 0.25477847 -19.270226
000030 fd 03 93 c0 b9 61 82 41 eb 73 6a 40 97 4b 5d 40
       -4.594237 16.297716 3.663325 3.4577386
000040 85 6c 34 42 d6 7b fe c0 f5 a0 13 c1 fc fc 44 c1
       45.105976 -7.9526167 -9.226796 -12.311764
000050 88 fb 19 41 55 7d de 40 10 66 0c 41 95 1f 98 3f
       9.623909 6.9527993 8.774918 1.1884638

blocks.1.1.conv_pwl.weight_bias f4 [24]
000000 61 61 bd c0 17 69 21 c0 72 81 ca be 7b 10 4c 3f
       -5.918137 -2.5220392 -0.39551884 0.7971265
000010 76 79 01 c1 7d ad 80 be 41 67 05 c0 cb 28 73 c0
       -8.092154 -0.2513236 -2.084427 -3.7993648
000020 b2 2b 66 c0 a6 38 5f c0 cb f6 29 bf 96 d0 74 c0
       -3.596417 -3.4878325 -0.663922 -3.825231
000030 11 c2 49 3f ce f8 a0 c0 6c 83 62 40 5b c5 6d bf
       0.78811747 -5.0303717 3.5392714 -0.92879266
000040 12 73 cf c0 0c 30 ed 3f c7 5f 2a c0 ab d5 6a 3e
       -6.4827967 1.8530288 -2.6620958 0.2293307
000050 db c1 65 40 69 69 e8 40 72 13 c9 c0 f4 a6 03 3f
       3.589957 7.2628675 -6.2836237 0.51426625

blocks.1.2.conv_pwl.weight_bias f4 [24]
000000 1c b1 95 3f aa c8 0c c0 4c 38 ee be d0 c3 1e bf
       1.1694674 -2.1997476 -0.46527326 -0.62017536
000010 ad 7a 02 40 84 62 3d 3e 2e 70 d1 bf d0 84 75 40
       2.0387375 0.18494612 -1.636236 3.8362312
000020 d0 ef 0d 40 56 dd c8 be b3 7e 0b c0 be 53 dd 40
       2.217762 -0.39231366 -2.179608 6.9164724
000030 b9 09 f3 be 4c c3 bf c0 c0 6c d7 3a c2 a7 31 c0
       -0.47468355 -5.99259 0.0016435608 -2.7758641
000040 0e 8d 72 40 8e 25 b4 3f d5 4e b7 40 8c 81 33 c0
       3.7898593 1.4073961 5.728373 -2.804782
000050 c7 ec 16 3f 94 d7 cd c0 f0 aa 35 be 70 94 46 3f
       0.58955044 -6.4325657 -0.17740989 0.7757025

blocks.2.0.conv_pwl.weight_bias f4 [48]
000000 f8 a9 52 c1 0e f8 82 c1 51 9a ed 41 f4 9d ad bf
       -13.166496 -16.37112 29.70035 -1.3563828
000010 3c 53 e1 40 dc cd b3 40 81 26 05 c1 c8 50 52 40
       7.0414104 5.6188793 -8.3219 3.2861805
000020 67 35 b9 c0 24 be c4 40 c3 51 0f c0 1f a5 8e 3e
       -5.787769 6.1482105 -2.2393653 0.27860352
000030 fa 9a 88 3f d4 4f d9 3f a3 d3 23 c1 e6 4b 01 41
       1.0672295 1.6977487 -10.239169 8.08103
000040 e9 9b 8b c1 bd 50 99 bf 75 08 31 c1 b4 54 4e 40
       -17.451128 -1.1977764 -11.064565 3.2239199
000050 8a 1f 3f 41 fa 08 4e 40 c6 43 a0 bf 25 95 ed 41
       11.9452 3.219298 -1.2520683 29.697824
000060 74 20 97 be f3 e2 ed c0 ad 0e 03 41 96 2b 62 41
       -0.29516947 -7.433954 8.191083 14.135641
000070 96 89 53 c1 40 60 10 41 aa f7 dc be d6 4e f6 3f
       -13.22109 9.023499 -0.43157703 1.9242809
000080 2f 9d d9 c0 1c 30 f2 c0 40 80 aa c0 94 e1 bc 40
       -6.8004375 -7.5683727 -5.3281555 5.9025364
000090 f6 27 05 c0 e7 a7 9d 40 62 14 94 c1 da 5d 12 41
       -2.080564 4.926746 -18.509953 9.147913
0000a0 74 55 03 c1 46 41 a4 c0 f1 5c 95 40 56 8b 39 41
       -8.208363 -5.132968 4.6675954 11.596518
0000b0 16 af 8a c1 d8 41 9a bf 8b a2 e5 3e d5 20 90 c0
       -17.335491 -1.2051344 0.44850573 -4.504008

blocks.2.1.conv_pwl.weight_bias f4 [48]
000000 61 2c a0 3f dd 9d c4 3f 73 9b 3f c0 00 e2 ea bf
       1.2513543 1.5360676 -2.9938629 -1.835022
000010 00 bd 26 bd ce fc 9d 3f f4 12 1f 3d 36 10 a8 bf
       -0.04070759 1.2342775 0.038836434 -1.3129947
000020 9e 5f 24 3f 6e d4 67 40 c3 66 8d 40 0e 32 d2 3e
       0.642084 3.6223407 4.418794 0.41053814
000030 72 2a 41 bf d4 bd fb bf 7c c0 ab 3f f6 57 da bf
       -0.7545539 -1.9667306 1.3418117 -1.7058094
000040 00 bc 1f c0 90 84 eb 3e 96 f1 a1 bf 04 3e 43 40
       -2.4958496 0.45999575 -1.2651851 3.0506601
000050 39 11 8c 3f b4 f9 18 3f b0 a3 1b 3f 7f a3 dd 3f
       1.0942756 0.59756017 0.6079664 1.731552
000060 c2 ce 2c bf 0c 29 fe bc 20 c2 0d 3e 38 f2 11 40
       -0.6750299 -0.031025432 0.13843584 2.2804089
000070 bc a3 54 3e f0 22 90 c0 ad 05 05 41 35 33 36 bf
       0.20765585 -4.504265 8.313886 -0.71171886
000080 2b 93 45 40 15 7e 96 c0 b6 a3 ba 3f 7f ae af 3f
       3.0871074 -4.702891 1.4581211 1.3725127
000090 04 d3 10 40 7b 4a 13 c0 ce 9e b9 bf a2 14 87 40
       2.2628794 -2.301421 -1.4501588 4.2212687
0000a0 5d 23 dc 3f 59 17 46 bf aa 12 a0 3f 40 39 54 bd
       1.7198292 -0.77379376 1.2505696 -0.05181241
0000b0 17 8e a2 c0 6b 7a b0 bf 91 a0 1f 40 00 09 85 bf
       -5.079845 -1.3787359 2.4941752 -1.0393372

blocks.2.2.conv_pwl.weight_bias f4 [48]
000000 fc ae ce 3e f8 ae 9c 3e c0 ff dc bc 84 bd 3f bf
       0.40367877 0.3060224 -0.02697742 -0.7489855
000010 5f d3 9d bf f5 32 15 40 52 63 ed 3f a0 5e 7e bf
       -1.233013 2.3312352 1.8545935 -0.99363136
000020 50 bd da be 1a 8d 97 3e e2 6b 39 c0 63 68 01 bf
       -0.4272256 0.2959984 -2.8972096 -0.50549906
000030 6f ac a4 3e b8 aa 7a 3f 0c 38 78 40 a2 b1 75 bd
       0.32162806 0.97916746 3.8784208 -0.059983857
000040 f6 ed b6 be 02 b8 d2 3f 9a 5c 95 be 14 ec ea be
       -0.35728425 1.6462405 -0.29172212 -0.45883238
000050 0b df 20 3f 74 ca 44 3f 9c 27 80 40 52 a0 cd 3f
       0.62840337 0.7687142 4.004835 1.6064551
000060 60 57 af 3f 4f bb 06 bf 3c 91 f5 3e 3d 47 31 bf
       1.369854 -0.5262956 0.47962368 -0.69249326
000070 54 c3 25 3f f3 bb 1b c0 c0 d1 9c 40 ee 1f 7d be
       0.6475117 -2.4333465 4.9006042 -0.24719211
000080 24 6b a6 bd ca 3d 30 40 5d 8d aa 3f 37 0c cc bf
       -0.08125904 2.7537713 1.3324391 -1.5941228
000090 f5 94 1d 40 fa 03 52 bf 83 49 39 3f c1 bb 91 3e
       2.4622166 -0.8203732 0.72377795 0.28463557
0000a0 18 23 92 3f 5e 52 82 be 10 72 82 3e 1b 12 0e bf
       1.141696 -0.25453466 0.25477648 -0.55496377
0000b0 0e a2 08 c0 08 31 20 40 2c 26 87 3f 88 3d 52 3f
       -2.134891 2.5029926 1.0558524 0.8212514
